Codes/ViT/model.pth (torch, 844397 bytes, 44 tensors)

cls_token f4 [1, 1, 16]
000000 e9 f3 4a 3f 88 0f 6a 3f d3 72 17 3f 2b 30 1d 3f
       0.7927843 0.9142995 0.5915958 0.61401623
000010 55 aa 13 3f fb 24 8e 3d 61 be 52 3f d5 95 00 3f
       0.5768178 0.06940647 0.82321745 0.50228626
000020 81 ed 62 3f a1 d5 a3 3d ac 38 74 3f ce 3e 19 3f
       0.8864365 0.07999731 0.95398974 0.5986146
000030 13 2c 07 3f e8 e3 82 3e 4d 1f b6 3e 2d 19 af 3d
       0.52801627 0.25564504 0.35570756 0.08549724

pos_emb f4 [1, 50, 16]
000000 29 9e a4 3e 80 22 0f 3e de 87 d2 3d a5 55 82 3e
       0.32151917 0.13978004 0.10279821 0.25455967
000010 b6 4f 0d 3f a8 b0 06 3e 1e b2 ca 3e 1c 74 49 3f
       0.55199754 0.13153327 0.39589018 0.78692794
000020 d8 92 26 3f 54 88 47 3f 95 67 83 3f 1c fc 64 3f
       0.65067816 0.77942395 1.0265986 0.8944719
000030 a8 96 7e 3f ce 3a 50 3f a2 8a a5 3d 55 c6 24 3e
       0.99448633 0.8133973 0.08083083 0.16091283
000040 4a cd 5b 3f c3 81 2e 3f 25 47 e0 3e 52 29 2d 3e
       0.8586012 0.6816675 0.4380428 0.16910294
000050 93 1b 94 3e 34 06 b0 3e 2a e5 fc 3e cb c4 b8 3e
       0.28927287 0.34379733 0.49393588 0.3608764
000060 52 59 5a 3e f6 2a 37 bd d3 ce a2 3e d2 7e 44 3f
       0.21323135 -0.044718705 0.3179842 0.7675601
000070 e3 49 13 3d 2f 28 81 3e 87 9c c2 3e 53 26 db 3d
       0.035959136 0.2522597 0.38010046 0.10700669
000080 81 da 55 3f fa 52 6c 3c 16 b5 11 3e d1 3a 5c 3f
       0.83536536 0.01442408 0.14229235 0.86027247
000090 aa 52 4c 3f 4f 9f 62 3f 74 fc 4d 3f 75 4a 1c 3b
       0.79813635 0.88524336 0.8046334 0.002384809
0000a0 a4 63 50 3f e6 e2 03 3d 6f fd 74 3e 72 e2 6d 3f
       0.8140204 0.03219881 0.23924802 0.92923653
0000b0 d1 eb 31 3f a9 2a bd 3e 22 b1 fb 3e 30 af 8e 3e
       0.6950045 0.3694661 0.4915858 0.27868032
0000c0 44 ea 81 3d c4 9e 4b 3f 2f 2f 8f bc e1 12 68 3f
       0.06343511 0.7953913 -0.017478554 0.90653807
0000d0 3e d9 53 3f ad 73 2e 3d f5 4a 2e 3f 9e 98 63 3f
       0.8275336 0.042590786 0.68083125 0.8890475
0000e0 83 1a 71 3f 55 19 2b 3f 07 e7 4b 3d a5 f0 f1 3e
       0.9418108 0.6683553 0.04978087 0.4725391
0000f0 82 c1 f5 3d d7 c5 3d 3f 5c c2 4d 3f 3f b5 fb 3e
       0.11999799 0.74130005 0.80374694 0.49161717
000100 03 05 cd 3e c1 f9 97 3d 23 eb 08 3e 4b 23 06 3e
       0.40042886 0.07420684 0.13370948 0.130994
000110 86 ac e2 3e 3a 31 54 3f 2b a6 1a 3f d8 76 6d 3e
       0.4427225 0.82887614 0.604098 0.23189867
000120 14 73 1c 3f 95 48 13 3f b7 39 4f 3f 33 17 62 3f
       0.61113095 0.57532626 0.8094744 0.8831665
000130 2b 95 1e 3f 59 dd 35 3f 38 d3 0c 3f 35 3d 44 3f
       0.6194636 0.71040875 0.55009794 0.76655895
000140 a7 59 cc 3e 21 31 41 3f 44 b5 92 bd 96 66 14 3f
       0.3991215 0.7546559 -0.0716348 0.57969034
000150 f1 ea 86 3e 2b 2b 82 3e ef 51 59 3f 5a 9a 29 3f
       0.2635112 0.2542356 0.84890646 0.66251147
000160 37 9a c6 3e 3f 02 27 3e dc 20 93 3e c5 02 6d 3f
       0.38789532 0.1630945 0.28736007 0.9258235
000170 06 66 88 3f 8a e9 a6 3e 24 ab 0b 3f 9d d2 75 3f
       1.0656135 0.3260005 0.54558015 0.96024495
000180 f8 cd 81 3f 59 e0 be 3d e1 eb 15 3f 88 65 ee 3e
       1.0140982 0.09320135 0.5856305 0.46561837
000190 66 62 31 3f 93 24 31 3f 77 34 a6 3e a7 2a 1b 3f
       0.6929077 0.6919643 0.32461902 0.6061196
0001a0 5c 9a 88 3d 53 38 2e 3f cf 30 5e 3f 0f c3 9d 3a
       0.06670067 0.68054694 0.86793226 0.0012036281
0001b0 3f be 25 3e 8b ab b0 3e ab 72 53 3f 21 78 4b 3f
       0.16185854 0.34505877 0.82596844 0.7948018
0001c0 a8 e1 20 3e 7a 05 31 3f 9c 78 eb 3e 49 0e 69 3f
       0.15711081 0.6914898 0.45990455 0.9103742
0001d0 6b 36 59 3d 7f fc c9 3e 07 39 61 3f 61 3f a7 3d
       0.053030413 0.39450452 0.8797764 0.081663854
0001e0 7a c2 06 3f e6 17 1f 3f f4 0f ff 3d 85 90 40 3e
       0.526405 0.6214584 0.12454215 0.1880513
0001f0 6e ff aa 3d cc 1e b5 3d 8c 59 51 3f 3c f1 39 3f
       0.083495006 0.08843765 0.8177726 0.7263372
000200 26 17 6b 3f af fa d8 3c f0 74 e8 bc 44 0b ba 3d
       0.91832197 0.026486723 -0.028376073 0.0908418
000210 98 42 ff 3e 9c 38 47 3f 31 5b 5a 3e 53 ba 25 3f
       0.49855494 0.77820754 0.2132385 0.64737433
000220 f2 96 d2 3e 4b 31 05 3f df bb 4d bc 4f 65 0f 3f
       0.41130787 0.5202834 -0.012556999 0.5601396
000230 71 27 55 3f da 0f 31 3f 4f f1 4f 3f d6 ae 33 3e
       0.8326331 0.6916481 0.8122758 0.17547163
000240 20 5e f4 3d 19 7c 30 3f 20 16 6c 3e 3e 8a 14 3f
       0.119320154 0.6893936 0.23055315 0.5802344
000250 59 65 40 3e 93 f4 a6 3e 58 b3 fc 3e b8 9e 11 3f
       0.18788661 0.3260847 0.49355578 0.5688281
000260 c0 ab 06 3f 6e 22 5c 3f 11 b2 21 3f d1 eb d4 3e
       0.5260582 0.85990036 0.6316233 0.41586164
000270 5d 83 82 3e cd 26 67 3f e4 ba fc 3e f0 bd 4e 3f
       0.25490847 0.9029358 0.49361336 0.8075857
000280 49 5d d0 3d 57 e4 e5 3e fc 93 a5 3d 94 4f b0 3e
       0.10174043 0.44900772 0.080848664 0.34435713
000290 ff 66 9e 3e de f9 31 3f d8 fb 73 3f 00 fd d5 3e
       0.30937955 0.6952189 0.9530616 0.41794586
0002a0 f0 47 06 3f 14 3f 36 3f 73 a1 91 3e 14 a9 56 3f
       0.5245352 0.7119 0.28443488 0.8385174
0002b0 1d c2 37 3f f6 43 01 3f e7 b9 33 3e 70 ca 10 3f
       0.7178057 0.50494325 0.17551385 0.56558895
0002c0 a3 84 48 3e 2c 2e 47 3e 0e 0a 3b 3f 22 fa 0b 3f
       0.19581847 0.19451207 0.7306222 0.5467855
0002d0 b0 20 25 3f 7a 8f 18 3f 2d 52 3c 3f 5a 80 10 3d
       0.64503 0.5959393 0.7356289 0.035278656
0002e0 96 c7 83 3f ce de f2 3e cf 6a cf 3d 93 0a 38 3f
       1.0295284 0.4743561 0.10127794 0.71891135
0002f0 c6 42 d7 3e a7 dc ce 3e 96 04 cf 3e 8f ab 6d 3f
       0.42043132 0.4040272 0.40433186 0.928399
000300 c2 73 50 3f 6e 20 e1 3e 4d 33 0c 3f e3 83 20 3f
       0.8142663 0.43970054 0.5476578 0.62701243
000310 44 e1 e3 3e 68 ac 9f 3e 7d 0e 23 3e 0a 23 03 3f
       0.44507802 0.31186223 0.15923496 0.5122534
000320 17 fb 29 3f 54 64 4c 3f 85 e6 00 3f be 1e 8c 3d
       0.6639876 0.7984059 0.50351745 0.06841801
000330 ae a1 34 3f d3 b0 45 3e 4d b7 51 3f 53 39 57 3f
       0.70559204 0.19305734 0.8192032 0.84071845
000340 73 8f 5a 3f 1e 0b 3e 3f 53 d5 16 3f 83 a7 1d 3f
       0.85375136 0.74235713 0.58919257 0.6158373
000350 24 07 c9 3e ed 14 76 3e 02 c9 e9 3d e1 af 58 3f
       0.3926326 0.2403142 0.11415292 0.8464337
000360 23 7a 84 3e fe 58 a3 3e c7 a5 54 3e 6b 7e 61 3f
       0.25874433 0.31903833 0.20766364 0.88083524
000370 56 3e 9a 3d b4 2e 0a 3f 54 fd da 3e 19 97 94 3d
       0.07531421 0.53977513 0.427714 0.07255382
000380 60 57 8d 3d 15 63 83 3e 1d 1d 05 3f c0 10 01 3f
       0.06901431 0.2566153 0.5199755 0.50416183
000390 1a 6a c2 3e 6c e6 53 3f f9 a3 18 3f bc b1 5f 3f
       0.37971574 0.8277347 0.596252 0.87380576
0003a0 30 68 0e 3f 90 3e 5e 3f 7a eb c1 bd e9 96 43 3e
       0.5562773 0.8681421 -0.09468742 0.19100536
0003b0 d3 31 35 3f 99 65 b2 3e 8a 5b 0b 3f 36 1c 6d 3f
       0.7077915 0.34843138 0.5443655 0.9262117
0003c0 fa 95 8b 3f 68 cc 6d 3e e4 65 d1 3e be d3 38 3f
       1.0905144 0.23222506 0.4089805 0.7219809
0003d0 6c e3 6a 3f be a0 72 3e 7a 69 e6 3e 8f 9d b4 3e
       0.9175327 0.23694131 0.45002347 0.35276458
0003e0 04 08 a8 3b d1 3f ab 3c bb 5b 71 3e b6 72 2e 3e
       0.0051279087 0.020904453 0.23570149 0.17035946
0003f0 4e d7 04 3f 49 53 6c 3f aa 37 3d 3f d4 f4 0b 3f
       0.5189103 0.92314583 0.7391306 0.54670453

conv.weight f4 [16, 1, 4, 4]
000000 95 19 e5 bc d2 62 a4 bc ea a1 3f 3e ff d0 a0 bb
       -0.0279663 -0.020066652 0.18714109 -0.004907727
000010 b4 3f 56 3e 4d 1f 75 3e 09 78 21 3c 60 69 87 bd
       0.20922738 0.23937722 0.009855279 -0.066118956
000020 2e 3b 87 3e 12 79 dd bc 6f 3a 48 3c a7 43 3f bd
       0.26412338 -0.02703527 0.012220963 -0.046695378
000030 58 30 b1 3e 96 9d e8 3d 4c d7 02 3e 9e e8 12 be
       0.34607196 0.11358182 0.12777442 -0.14346549
000040 f0 16 d7 bc 8b c9 3f be 28 81 b5 3c fa f9 cb be
       -0.026256055 -0.18729226 0.022156313 -0.39839154
000050 c3 ce 48 bd 2b 76 f8 bc f8 16 45 3e b4 96 8c be
       -0.04902531 -0.030329784 0.19247043 -0.27458727
000060 38 43 29 3e 3d cf 2f 3c 33 3f 7b bd 17 91 86 be
       0.16529548 0.010730562 -0.06133957 -0.2628257
000070 c9 48 18 be ed f9 76 3d 5f b9 bb bd 4f 68 52 be
       -0.14871515 0.06029694 -0.09166216 -0.20547603
000080 ba 70 68 3e 34 b6 06 3e dd 93 16 3c ef 09 b1 3e
       0.22699252 0.13155442 0.009190527 0.3457789
000090 78 e7 4f be 56 cf c1 bd 0d df 6b 3e a1 71 16 3d
       -0.20303142 -0.09463374 0.23034306 0.03672946
0000a0 03 42 90 bd 50 06 8d 3b aa e5 6e 3e 59 ba 96 be
       -0.07043841 0.004303731 0.23329797 -0.29439047
0000b0 a6 fe 24 be 0e 68 1c 3e 3b f4 01 3e f7 19 71 be
       -0.16112766 0.15274069 0.12690823 -0.23545061
0000c0 fd 33 fb 3d c9 96 07 bd 32 f5 78 3d 68 70 8f be
       0.12265775 -0.033102784 0.06078071 -0.28015447
0000d0 f8 22 a4 bc 48 68 11 be e7 5d 40 be 4f e0 ac 3d
       -0.020036206 -0.14199936 -0.18785821 0.08441221
0000e0 55 66 1f 3e e0 ef e2 bd 6d 1a fd bc 50 6d a1 3d
       0.1556638 -0.11080909 -0.03089639 0.07882178
0000f0 66 36 9f 3e d1 09 0c 3e e4 5a 74 bd eb 2a a4 3d
       0.3109619 0.1367562 -0.059656993 0.080159985
000100 67 e2 be bd 01 0f 9d be 9c 21 b2 be 1f c1 be 3b
       -0.093205266 -0.3067551 -0.34791267 0.0058213617
000110 e2 8d 80 bd f2 ec 1b be f1 7c e0 3d f8 15 96 be
       -0.06277062 -0.15227106 0.10961331 -0.29313636
000120 b1 0c 08 3e 6b bf 8f 3d 20 4c e5 bc 4d 82 09 3e
       0.13286091 0.07018932 -0.0279904 0.13428612
000130 40 d3 25 3a 30 26 13 be 03 87 f8 3d f2 47 13 3e
       0.0006325729 -0.14370036 0.121351264 0.14382914
000140 2d a5 0b 3d 06 00 0a be c5 f6 ef bd d4 d1 51 3e
       0.03409307 -0.13476571 -0.117169894 0.204902
000150 23 ca 4b be 78 58 60 be 49 dd 04 be fc 1b c9 3d
       -0.19901328 -0.21908748 -0.12975039 0.09819791
000160 69 66 4c be 6b c3 83 bb 51 b3 13 be 7c 59 fc bd
       -0.19960941 -0.0040210984 -0.14423873 -0.12321755
000170 89 4a 47 be 6b 83 4e bd 62 9f 77 be e6 4f 09 be
       -0.19462027 -0.0504183 -0.24181893 -0.13409385
000180 e3 5c 77 3d 38 25 27 3d 19 4b 37 bc fb 52 44 be
       0.060391318 0.04080698 -0.011187338 -0.1917228
000190 0e 8a 0b be f8 3b 61 3e 1e de 27 be 25 01 7b be
       -0.13626882 0.21995533 -0.16393325 -0.24512155
0001a0 53 7b c9 3b a6 ec 58 3e ed 90 28 3e 19 76 0c be
       0.0061487346 0.21184024 0.16461535 -0.13716926
0001b0 2a b5 86 bd 6f 1e e4 bd d5 28 10 be ae 34 a1 be
       -0.06577523 -0.11138617 -0.14078076 -0.31485504
0001c0 3b c5 b6 bc 14 6f 79 be 81 61 85 be 93 74 05 be
       -0.022310844 -0.24358779 -0.26050952 -0.13032751
0001d0 6c e4 e5 bd 7f 0a 2c be b3 40 5b be f6 a2 8f 3d
       -0.11225209 -0.16800879 -0.214114 0.07013504
0001e0 8e 33 34 be d9 e1 06 3e 9b f5 39 3d f4 57 b4 bc
       -0.17597792 0.13172092 0.045400243 -0.022014596
0001f0 c3 4b f9 3d b3 ce 8d 3d 16 45 07 be 40 ed 33 3e
       0.121726535 0.0692419 -0.13209948 0.17570972
000200 d6 60 db 3e 25 40 2c 3e ab fe a2 3d 2c 6b 33 3d
       0.42847317 0.16821344 0.0795873 0.04380338
000210 29 a7 8a 3e 6e 55 4e 3e 04 88 9b bd 9f 39 aa bd
       0.27080658 0.20149776 -0.07594302 -0.083117716
000220 38 3f 82 3d a7 0d 0a be 50 dd 05 be 5f 65 e2 bd
       0.06359714 -0.1348177 -0.13072705 -0.11054491
000230 dc 09 26 bd 57 9a 61 be 29 74 5a be 97 f2 e1 3c
       -0.040536746 -0.22031532 -0.21333374 0.027581496
000240 f6 c4 81 3d de 6a b9 bc 70 c0 89 3e 58 ae 97 3e
       0.063363954 -0.022633966 0.2690463 0.296252
000250 1f 30 4e be 6b fb 85 3e 96 13 a7 3d 31 85 8e 3e
       -0.20135544 0.2616838 0.081580326 0.27835992
000260 5e 47 3c 3e c9 21 a9 bd 86 b7 4f 3d 92 4a 80 3e
       0.183866 -0.08258397 0.05071213 0.25056893
000270 c3 b4 28 be 64 68 7e 3e 1e 70 4d bd 8b ef 2e bd
       -0.16475205 0.2484451 -0.05015575 -0.042708915
000280 71 4b 54 bd ab 9a c0 39 6d 9c 08 be 09 57 44 be
       -0.05182976 0.0003673633 -0.13340922 -0.19173826
000290 23 a2 ae 3d b0 a1 0a bd 5b 9a 1f 3e 87 19 06 bd
       0.08527019 -0.033845603 0.15586226 -0.03273919
0002a0 fa ee d3 be bf 98 9f 3c dc 60 1d be 93 76 0b 3e
       -0.41393262 0.019482015 -0.1536898 0.13619451
0002b0 0c d5 49 be 86 3d 27 be b7 03 10 be 64 c3 24 3e
       -0.19710177 -0.16332063 -0.14063917 0.1609016
0002c0 c2 2a e2 3d 11 9d df 3d be 5e 7a be 3a 72 26 3e
       0.11043312 0.1091863 -0.24450204 0.16254511
0002d0 0d da 16 bd bf 10 ee bd 33 25 c6 3d b9 d3 b6 bd
       -0.036829043 -0.11624288 0.09675064 -0.08927102
0002e0 63 c2 2e 3e dc 2b 76 be 42 21 0d 3e d9 a7 28 bd
       0.1706634 -0.24040169 0.13782218 -0.041175697
0002f0 91 3b b2 bd 2a 79 e3 bd 85 0e 7b be 97 b1 3f be
       -0.08702768 -0.111070946 -0.24517258 -0.18720089
000300 66 6f 48 3c 7b 27 f0 bd e7 66 9a 3d 8e e7 2e 3d
       0.012233591 -0.1172628 0.07539158 0.042701297
000310 e4 96 62 3e 92 3d 67 bb d4 4c 1d 3e 7a 26 1b bd
       0.22127873 -0.0035284502 0.15361339 -0.03787849
000320 ee 50 7d 3e 8e 49 7f 3e a2 91 57 be 6d dc e7 3d
       0.24737903 0.24930403 -0.21051648 0.1132134
000330 14 46 af 3e 83 11 b6 3e d4 a2 19 3e 9c 25 f4 3d
       0.34233153 0.35560235 0.1500352 0.11921236
000340 8f bc 2c be 35 68 fa 3c 42 af 93 be 90 4b 12 be
       -0.16868804 0.030567268 -0.2884465 -0.14286637
000350 93 d5 e7 bd a8 c0 b1 3e 61 8b 00 be 2b 62 2e be
       -0.11320033 0.34717298 -0.12553169 -0.17029636
000360 85 94 2c be c7 90 8f 3e 38 ba ec 3d cd 95 bc bd
       -0.1685353 0.28040144 0.11558956 -0.0920826
000370 f3 91 1f be 89 2f fb 3d b7 bd d8 3d 0f d9 3d 3e
       -0.15583019 0.12264926 0.1058306 0.18539833
000380 08 2a 08 3e ce 66 c0 bd 9b 06 9e be 1e 0f 2b 3e
       0.13297284 -0.093946084 -0.30864415 0.16704985
000390 0a 21 81 3e b0 25 63 be 26 70 03 3e dc 8f b6 3d
       0.2522052 -0.22182345 0.1283575 0.08914158
0003a0 da 18 ba bb 00 3e 47 3e 82 7a f3 3c e6 60 90 3d
       -0.005679232 0.19457245 0.029721502 0.07049732
0003b0 ca 3c f4 bc 80 d1 26 bd 28 d4 2c be b1 56 16 3e
       -0.029814143 -0.04072714 -0.16877806 0.14681508
0003c0 22 33 45 be 16 6a 54 be 57 63 05 3d e2 b7 36 bd
       -0.19257787 -0.20743594 0.03256544 -0.044608958
0003d0 de 57 93 be c7 e0 0f be 74 b9 2f 3e 87 b4 6b 3e
       -0.28777975 -0.1405059 0.17160589 0.23018084
0003e0 7b 0b 54 bc 33 8a b3 3d 16 3d 09 3c c1 c0 0b 3e
       -0.01294219 0.08766594 0.00837638 0.13647749
0003f0 f0 4b 91 be b4 1b 07 3d a3 e3 6f 3e b9 17 ef bd
       -0.28378248 0.032985404 0.2342668 -0.116744466

conv.bias f4 [16]
000000 d3 da e4 bd 8d c9 1f 3d cb c8 8d bd ba e7 f6 3c
       -0.1117455 0.039010573 -0.06923064 0.030139793
000010 c3 34 06 3e 34 f1 a6 3d 93 41 36 3e d3 a4 5c be
       0.13106064 0.081514746 0.17798452 -0.2154725
000020 a1 3e 30 3e 7b 5f 9c bd 1a 59 2a be 50 6a 76 3e
       0.17211391 -0.07635399 -0.16635552 0.24063993
000030 ce 0d 56 be 09 c5 e6 3d 4d 7a 3e be 27 c8 e4 3d
       -0.20903704 0.1126805 -0.18601342 0.111709885

patch_emb.weight f4 [16, 16]
000000 e7 29 4e 3e 42 0d 85 3e 14 64 a9 3e 62 50 01 3c
       0.20133172 0.25986677 0.33084166 0.0078927
000010 99 6a e5 bb 1d b0 cd bd 5c 3e 7a 3d 3d 87 69 be
       -0.007001233 -0.100433566 0.061094627 -0.22805496
000020 ab 9f 18 3e 2e 3a 29 be 5c a4 20 be c4 c0 69 bd
       0.14904658 -0.165261 -0.15687698 -0.0570686
000030 c0 65 f5 bd 27 de a2 3d 2b 2e f8 bd b7 27 bb bd
       -0.11982298 0.079525284 -0.12118181 -0.091384344
000040 72 ef b8 3d 91 cd dc bc 2d 98 74 3e 53 c4 94 be
       0.090300456 -0.02695349 0.23886175 -0.29056033
000050 8d 4f 17 be de 7b 0b 3d e9 b1 1b be 9b 5a 57 be
       -0.1477644 0.034053676 -0.15204586 -0.21030657
000060 b4 d2 0c be 33 ca 59 3e 4e 5b 86 3d 37 bc f2 3d
       -0.13752252 0.21268539 0.06560384 0.118523054
000070 be 24 9d be ce e9 e4 bc dc dd 18 3e ec f5 cc 3c
       -0.30692095 -0.027943518 0.14928383 0.025019608
000080 90 9a 23 be 84 f2 37 3e a4 2b 82 bd ab 45 19 3d
       -0.1597693 0.17963606 -0.0635598 0.037419956
000090 63 f1 7a 3e 78 e6 92 bc 69 b9 1d be ef a6 a6 3e
       0.24506144 -0.017932162 -0.1540276 0.32549235
0000a0 92 25 b4 be 05 3c c7 bd f9 fc 5a 3c 01 a1 d2 bd
       -0.35184914 -0.09728245 0.013365977 -0.10284615
0000b0 2b 8e 42 bd 7b 47 9e 3e 8b 6d 51 3e 83 e3 6b 3e
       -0.047498863 0.3091391 0.20451944 0.23036008
0000c0 cc e6 4f be d5 9a c8 bd 39 c8 d7 3d 8d 51 ae 3e
       -0.20302886 -0.09795157 0.10536236 0.34046593
0000d0 01 a0 fb bc c8 3f 92 be 63 47 6d bc 77 74 a0 bd
       -0.030715944 -0.28564286 -0.014482352 -0.07834714
0000e0 39 ae 8b bd e0 77 46 be 9a be b9 bb 12 1c d7 3d
       -0.0682034 -0.19381666 -0.0056684734 0.10503401
0000f0 12 ee 99 3d 5e 5e 26 3e 2a 36 12 be 2b 4d af bd
       0.075161114 0.16246936 -0.14278474 -0.085596405
000100 19 c8 a3 3d 29 9f 1d 3e 00 1c b5 3e 27 81 4c bd
       0.0799715 0.15392746 0.35372925 -0.049927857
000110 cf 78 bb bd 40 bf 5e 3d 4a ba 5e be ed 10 94 3d
       -0.09153902 0.05438161 -0.21750751 0.07229791
000120 f3 90 83 be b3 ea b6 bc 96 b8 f2 3d 63 8e 70 be
       -0.25696525 -0.02232871 0.11851613 -0.23491816
000130 cd 4c a4 3d 5e 35 7f 3d ff b6 55 be 51 6d a2 bd
       0.08022461 0.062306754 -0.20870589 -0.07931007
000140 a0 f8 4a 3e eb 64 75 3e 22 c3 8a 3c 7b b6 f8 3b
       0.19821405 0.23964278 0.01693875 0.0075901127
000150 05 63 93 bd 29 16 5d be 18 8c 78 3c c7 8d 87 bd
       -0.07196621 -0.21590485 0.01517012 -0.06618839
000160 eb 52 1f be 7a 13 02 3d 8c c6 4a be a7 ce 29 be
       -0.15558974 0.031756856 -0.19802302 -0.16582738
000170 71 c8 0b be 40 44 5a bd c0 c5 0d be 96 ff 91 bc
       -0.13650681 -0.053287745 -0.13844967 -0.017822068
000180 4c cb 75 3e 4d be 86 3e 26 fe a9 3d 4c c2 c2 bc
       0.24003333 0.26317063 0.08300428 -0.023774289
000190 b7 ea c8 3d c7 55 2a 3e e5 86 6c 3e 9b 19 11 ba
       0.09810393 0.16634284 0.23098333 -0.00055351265
0001a0 4d 00 21 3e 3e cd 91 3d 65 00 9f bd 4c 16 34 3e
       0.15722771 0.07119225 -0.07763747 0.1758663
0001b0 7b 6c 0f 3e 33 ea 8a 3c e8 76 1d 3e f2 aa 5b 3c
       0.14006226 0.016957378 0.1537739 0.013407456
0001c0 a5 7b 86 3e f1 c3 50 be 34 bd 0b 3d 64 b4 30 be
       0.26266208 -0.20387246 0.034115985 -0.17256314
0001d0 29 04 d7 3d 25 7b 40 be 28 ce 72 be f8 7b 3f be
       0.1049884 -0.18796976 -0.23711455 -0.18699634
0001e0 b7 81 82 be 64 52 28 3e 41 db 31 be 3b 3e ff bd
       -0.2548959 0.1643768 -0.17368795 -0.124630414
0001f0 53 9c 18 bd 96 a2 42 3d 15 ae f0 bb db 88 cb bd
       -0.037258457 0.047518335 -0.007344971 -0.099382125
000200 61 22 02 be 28 1c 85 be 27 fd 97 bd 51 7f 46 3e
       -0.12708427 -0.25998044 -0.07421332 0.19384505
000210 8c 78 0a be d1 7c 08 be f3 98 48 be c2 ad 01 be
       -0.13522547 -0.13328864 -0.19589595 -0.1266394
000220 5b 90 17 3e 28 a0 11 3e f2 a7 98 bb 49 21 32 bd
       0.14801161 0.14221251 -0.0046586925 -0.043488774
000230 f7 2e 12 be 1d ff 55 be 2c 7a af 3e 89 68 c3 3d
       -0.14275728 -0.20898099 0.34272897 0.09541423
000240 6c 77 f5 3d f1 39 66 3e 91 61 75 be 3b 10 cb 3d
       0.119856685 0.2248304 -0.23963 0.09915205
000250 6c b2 48 3e fd d7 b9 3d c0 c5 ae bd 76 7a 5b be
       0.19599313 0.090743996 -0.085338116 -0.21433434
000260 47 97 07 3e 87 41 a4 be cf 56 b3 bd 56 49 62 3e
       0.13241301 -0.32081243 -0.08756792 0.22098288
000270 3d 0d d7 bd 87 e5 2c be 43 7c 5f 3e 1b d9 9d be
       -0.10500572 -0.16884433 0.21824746 -0.308297
000280 1b 24 81 bd bc 3e f9 3c 25 e1 44 be a9 c2 d0 3c
       -0.06305715 0.030425422 -0.19226511 0.025483446
000290 53 28 0d 3e 77 68 fc bb bd 71 26 3e 9d 78 67 3d
       0.13784914 -0.007702883 0.16254325 0.05651151
0002a0 c9 e8 e1 3d 16 38 84 bd db 75 05 3e 69 98 7c be
       0.11030728 -0.0645601 0.1303324 -0.24667515
0002b0 65 73 23 3e 5c 3a 11 bd 9b 8e 56 be d5 cd 83 3d
       0.15961988 -0.035456046 -0.20952837 0.06435744
0002c0 28 23 e4 bd 15 4e 55 bc cb e0 59 3e c0 71 4a be
       -0.11139518 -0.0130191045 0.21277158 -0.19769955
0002d0 3e 1f c4 3c 72 34 30 bc 7e 9a 1d 3e d4 53 5d 3e
       0.023940679 -0.010754691 0.15390965 0.21614009
0002e0 e6 c1 07 3e ff 62 c8 3b c1 9c f5 3d 42 26 12 3c
       0.1325756 0.006115317 0.11992789 0.008920254
0002f0 e4 a8 33 3d 0a a9 86 be df a2 e4 bd d8 04 7b 3d
       0.04386224 -0.26300842 -0.11163878 0.061283916
000300 ab dc 2b bd 87 1a 94 be 65 dd 93 3e cf 6e ed 3c
       -0.041958492 -0.2892649 0.28879848 0.028983502
000310 36 39 5c be 26 15 1f be 34 51 ad bd df d1 8a 3c
       -0.21506199 -0.15535411 -0.08462754 0.016945777
000320 b4 31 39 3e 3d e2 86 3e 71 de 39 be 37 cc da 3c
       0.18085366 0.2634448 -0.18151261 0.026708705
000330 5c d5 56 3e a8 3f 89 3d 5e e1 24 3e 99 5d fa 3d
       0.20979828 0.067015946 0.16101596 0.122248836
000340 6a a1 b1 3d c0 7d 22 be 18 67 9a 3d 56 c1 82 3e
       0.086733654 -0.15868282 0.07539195 0.2553813
000350 cd 97 25 3e 71 31 35 be 7c bd 73 be 04 64 3c 3e
       0.16171189 -0.17694642 -0.23802751 0.18397528
000360 d5 84 d4 bd da ea 84 bd d7 12 57 be 73 6d 5f 3e
       -0.10376898 -0.06490107 -0.2100328 0.21819095
000370 71 58 18 3e 17 ec 74 bd 06 fa 8d 3e ef 3e 43 be
       0.14877488 -0.059795465 0.27729815 -0.19066976
000380 6d 2c 8d be 1a 41 86 3d 59 a7 12 be 9f e7 06 be
       -0.27572957 0.06555386 -0.1432165 -0.13174294
000390 ec 46 fd 3c 14 03 b8 3e e8 ce a8 3d 7e c7 ff bc
       0.030917607 0.35939848 0.08242589 -0.031223055
0003a0 80 be e6 bd b0 78 43 be 24 73 70 3e 0d 8a 58 3e
       -0.11266804 -0.19089007 0.23481423 0.21146412
0003b0 aa cc a3 be 6e a4 16 bd e2 ba 2f bd 24 53 28 3e
       -0.31992084 -0.036777906 -0.042902835 0.16437966
0003c0 a2 76 33 be 9b dc e9 3d 66 42 b2 3d 54 42 b7 bd
       -0.17525724 0.1141903 0.08704071 -0.08948198
0003d0 96 d6 4a be cf 83 ce 3d 26 00 05 3e 88 c4 14 be
       -0.1980842 0.10083734 0.12988338 -0.14528096
0003e0 a9 bd 74 bc dc e9 f6 3d 93 f3 9d 3d 0e 8b 9c bd
       -0.014937797 0.12056324 0.07712474 -0.0764371
0003f0 c7 f9 06 be 40 2c d7 3d 51 1b ac bd 78 a2 b0 bc
       -0.1318122 0.10506487 -0.08403648 -0.021561846

patch_emb.bias f4 [16]
000000 da 2a 78 be c5 1e 94 3d b1 58 08 3e 38 be e8 bd
       -0.24235097 0.07232431 0.13315083 -0.11364406
000010 16 4c 59 be b1 4e fb bd 67 f1 ce bd c6 50 47 be
       -0.2122043 -0.122708686 -0.101046376 -0.19464406
000020 e7 08 b2 3d 2c 44 fb bd db f0 82 3e bc ad e7 bb
       0.08693104 -0.12268862 0.25574383 -0.0070702713
000030 7d 94 7e be d7 38 23 3e e2 50 02 be 18 14 d8 3c
       -0.24861331 0.15939651 -0.12726167 0.026376769

transformer_enc.layers.0.self_attn.in_proj_weight f4 [48, 16]
000000 f3 dd 9e 3e 5b 02 88 be 83 f3 77 be 77 75 a9 be
       0.3102871 -0.26564297 -0.24213986 -0.3309743
000010 67 5e 28 be ef 7e 9e be b3 6e 04 3e 9b 93 17 be
       -0.16442262 -0.30956218 0.12932853 -0.14802401
000020 e8 98 32 bd f6 68 a3 be a9 6b c4 be f7 cb 06 bb
       -0.043602854 -0.31916016 -0.38363388 -0.002056835
000030 3a 5b ca 3d 2f 85 6c be 68 f8 5d 3e 31 b8 2c 3e
       0.09880681 -0.2309768 0.2167679 0.16867138
000040 13 dd cb 3c 35 49 cd 3d 17 10 a4 be ca 12 21 be
       0.02488569 0.10023729 -0.32043526 -0.15729824
000050 b4 07 12 3d 09 d2 e1 bd 21 9b 78 3e 76 d0 1a 3e
       0.035651878 -0.11026389 0.24277927 0.15118584
000060 a7 e6 64 3e cb 67 95 3e d4 10 85 be c0 fd 02 be
       0.22353612 0.2918075 -0.259894 -0.1279211
000070 c2 04 3a be 49 6e dd 3d 93 9d a3 be 11 8e 86 3b
       -0.18165877 0.10812051 -0.31956157 0.004106291
000080 7b 43 44 3e db 57 95 be 17 ef b7 3c 4b c7 75 3e
       0.19166367 -0.2916859 0.022452874 0.24001805
000090 0b fe 4d 3e bf 47 2b be 59 35 bf be 61 80 cb bc
       0.20116441 -0.16726588 -0.3734539 -0.02484149
0000a0 b7 7b 36 3e b0 94 a0 be 49 9b 32 3e 19 32 c4 bd
       0.17820631 -0.3136344 0.17442049 -0.09579868
0000b0 e3 e5 42 3e 30 24 65 be ab b2 b0 bd ca c9 74 3e
       0.19033007 -0.22377086 -0.08627828 0.23905101
0000c0 9a 22 11 3e 4d 6b 5a 3e d8 8f 41 3e 4d 47 33 be
       0.14173356 0.21329994 0.18902528 -0.17507668
0000d0 ba 45 0b be a2 5c 9f 3d 91 76 99 bc 6d bd d7 3e
       -0.13600817 0.0778134 -0.018733295 0.42136708
0000e0 ca 9d e8 bd a6 91 25 be 48 22 2c 3c d7 60 30 3d
       -0.11358221 -0.16168842 0.01050622 0.043061104
0000f0 40 9b b1 3e de 68 c9 3e 13 ae 91 be 7e 56 bb bd
       0.3468876 0.3933782 -0.2845312 -0.091473565
000100 90 79 11 bc 8b 3e b4 bd 3d 3b 86 3d c6 d9 ba bd
       -0.00887908 -0.088009916 0.065542676 -0.09123568
000110 c9 19 b3 3c 60 18 a7 3e e8 85 74 3d 76 5d a3 be
       0.021862881 0.32635784 0.059698015 -0.31907243
000120 d0 ff 82 3c e1 d2 f0 bd c9 6c 47 3e 3f e7 3d 3e
       0.015991122 -0.11758972 0.19475092 0.18545245
000130 6e 6a ca 3b 7c 6e 9e be 0a 28 b7 bd 7b ec f5 bd
       0.006177238 -0.30943668 -0.08943184 -0.12007996
000140 77 93 0d 3e b7 e6 4d 3e f1 e7 a2 3d 7d c4 d3 3e
       0.13825785 0.20107542 0.079543956 0.41360846
000150 96 dd 3d 3e b3 85 7d 3e 22 4e 57 be 7e 9f 4f bd
       0.1854156 0.24758033 -0.21025899 -0.050689213
000160 db 23 41 3e 4b 9a b8 3e 90 f4 94 3e 97 e9 f5 3e
       0.18861334 0.36055216 0.29092836 0.48029777
000170 31 8e 7c 3e fd 7f 53 be 5d 6e a9 bc 2c 79 a4 3c
       0.24663617 -0.20654292 -0.020682508 0.02007731
000180 f0 27 56 3d 4f 4d 3a 3d 9c f7 8b 3e 45 9d b8 3e
       0.05228418 0.045483883 0.27337348 0.36057487
000190 5f 25 5b be 74 d4 95 3d 02 6d 81 be 47 33 fe 3d
       -0.21400975 0.07315913 -0.2527848 0.12412124
0001a0 69 a6 5b 3e 28 16 64 be 35 8b 5c be 0e 53 4d 3e
       0.21450199 -0.22274077 -0.21537478 0.20051214
0001b0 37 61 b6 3c 26 65 8f be 42 7d 12 be 74 2c 2b be
       0.022263153 -0.28006858 -0.14305595 -0.16716176
0001c0 6d 44 8a be a2 13 b2 be 7d d0 0e bb c2 93 01 be
       -0.2700533 -0.34780604 -0.002179175 -0.12654021
0001d0 32 0f 8f 3e f9 1e 76 bd 7a 77 71 be 31 a4 80 3b
       0.2794128 -0.06008813 -0.23580733 0.003925823
0001e0 8e 7a 9f 3d be a0 80 be 2b 1b 28 be 30 e9 99 be
       0.07787047 -0.25122637 -0.16416614 -0.3006072
0001f0 54 97 bb bd 1b 88 90 3d 7c 7d 79 be ef 31 d0 3d
       -0.09159723 0.0705721 -0.24364275 0.10165774
000200 14 ab 84 3e 8f 6e 5d 3e 46 ef c7 bd 22 0b 1b be
       0.25911772 0.21624206 -0.09762435 -0.15140966
000210 dd ba dc be 0a f7 7e be be 79 a4 3d b6 68 f1 bd
       -0.43111315 -0.24898925 0.08031033 -0.1178755
000220 3b 8c 38 be 0b 94 3d 3e 99 4d 0d 3e 66 10 74 3e
       -0.18022244 0.18513505 0.13799132 0.2383438
000230 e3 ef 49 3e ff 0c c7 be 5f 06 4e 3b f7 12 57 bd
       0.19720416 -0.38877103 0.0031436903 -0.05250832
000240 9d 54 0e 3f de 2e 39 be 16 93 8b be da 24 aa 3d
       0.5559786 -0.18084285 -0.27260655 0.0830781
000250 d9 8d 03 3f 45 60 be be e9 64 05 3f 84 6a f1 3e
       0.5138832 -0.37182823 0.521071 0.47151577
000260 83 4a 97 3e c0 a7 f8 3d 4d 63 6a 3e 6c f7 02 3d
       0.29549035 0.12141371 0.22889443 0.03197424
000270 8f 4e a6 3e fc ea 2d bc a9 4e 5d be c4 da 9c 3e
       0.3248181 -0.010615107 -0.21612038 0.30635655
000280 4e 42 e3 bd 43 01 3f 3e 80 37 f4 3e 3c 47 26 3d
       -0.11096631 0.18652825 0.47698593 0.04059528
000290 61 01 6a be 76 42 fd 3e 2d 6b 34 bf 83 b9 bb be
       -0.22852089 0.49464768 -0.7047604 -0.36664972
0002a0 8a c1 cb be a6 80 81 be 35 28 31 be ff b8 cf 3d
       -0.39796096 -0.25293463 -0.17300494 0.10142707
0002b0 b3 48 b5 be 82 3d 8b be 52 64 03 3e 1b de c1 3c
       -0.35407028 -0.27195364 0.12831238 0.023665478
0002c0 86 d6 a6 bd 8c 69 10 3e 4f 2f ab be 2d 2e 4e be
       -0.08146386 0.14102763 -0.3343453 -0.20134802
0002d0 c8 b7 e6 be 60 b1 59 3e 21 ba e0 be fd d5 a0 be
       -0.4506209 0.2125907 -0.43892005 -0.3141326
0002e0 9b 51 00 bf 86 d9 4f be 54 0b 22 bc 60 e7 23 be
       -0.5012452 -0.20297822 -0.009890396 -0.16006231
0002f0 e9 30 0d bf a0 e3 dd be cf 27 3a 3e 1a db 5b be
       -0.55152756 -0.43337727 0.18179248 -0.214703
000300 e7 db 8d be 4f f3 8c be a8 83 b6 be b5 87 e9 3d
       -0.27706835 -0.2752938 -0.3564732 0.11402837
000310 66 a2 13 be fa ba 4c 3e 3c 69 9c be ba 09 50 3e
       -0.14417419 0.19993201 -0.30549037 0.2031621
000320 e3 79 f9 bd c1 aa 86 be 59 25 e1 be bd 32 e0 bb
       -0.12181451 -0.2630215 -0.43973807 -0.006841986
000330 ad aa d7 bd 9e 05 a5 be 39 85 01 be e3 49 99 be
       -0.10530601 -0.32230848 -0.12648477 -0.29939184
000340 57 d4 2a 3e f2 a9 34 bd 05 af 95 be 01 39 1f be
       0.16682564 -0.044107385 -0.29235092 -0.15549089
000350 5c f2 8f be 94 67 3b 3e b2 63 79 3b 52 bf 34 3e
       -0.28114593 0.1830123 0.0038053808 0.17651108
000360 ee 2c ea bd 41 53 07 3d 73 7b 78 be 46 a0 90 be
       -0.11434351 0.03303838 -0.24265842 -0.2824728
000370 b0 e1 24 3e d7 4f 30 be 31 0d 85 be 3a d9 96 3d
       0.16101718 -0.17217956 -0.25986627 0.073656514
000380 2e 26 8a 3e b6 1e bb 3d db b2 04 3f 29 cc 36 3e
       0.26982254 0.09136717 0.5183541 0.17851318
000390 ca cf 31 3e 2a 00 36 3e 79 b0 c0 bd e7 96 db 3e
       0.17364421 0.177735 -0.094086595 0.42888567
0003a0 94 ea bc 3d 07 73 12 be 2e ca ba 3e d7 32 b5 3e
       0.0922443 -0.14301692 0.36482376 0.3539035
0003b0 b9 9f 18 3e cf 12 cc 3d cc 9a a2 3d b6 e3 72 be
       0.1490468 0.09964525 0.079396814 -0.23719677
0003c0 b8 9d c0 bc 1a 12 53 be b8 e9 dd bc 32 1f 19 be
       -0.023512706 -0.20612374 -0.027088985 -0.14953306
0003d0 e4 ea f3 be 62 da 94 be 90 9d 15 bf 04 c0 dd be
       -0.47640145 -0.29072863 -0.58443546 -0.4331056
0003e0 57 cf 45 be d3 95 e7 be d6 e5 bf bc 01 42 da 3c
       -0.19317375 -0.45231494 -0.023425024 0.026642801
0003f0 fc d9 20 be 59 0a 26 be 29 27 70 bd c3 f5 b9 be
       -0.15708154 -0.16214885 -0.058631096 -0.36320314

transformer_enc.layers.0.self_attn.in_proj_bias f4 [48]
000000 b3 d7 7c bd ef 0b 9a bc 55 3b 9c bd 73 31 bd 3d
       -0.061729144 -0.018804519 -0.07628504 0.09237947
000010 f0 5b c3 3c bf 4f 16 3e 8a 5b 50 3d f2 6c 08 be
       0.02384755 0.14678858 0.05086855 -0.1332281
000020 b8 17 b0 bc 14 06 96 bb 1a 7c fc ba 19 20 f8 bd
       -0.021495685 -0.0045783613 -0.0019263059 -0.12115497
000030 9c 07 9d bd 1e b7 52 bd 21 7f 12 3e 01 ad 42 be
       -0.07667467 -0.051444165 0.14306308 -0.19011308
000040 4d 33 97 3b 73 36 d6 3b 1d 61 03 bb 6c c3 2b 3b
       0.00461427 0.0065372526 -0.0020046898 0.002620901
000050 8a b0 1a ba ad f5 14 bc 57 25 b1 b9 2b 6b 3e 39
       -0.000590094 -0.009091777 -0.0003378789 0.00018159735
000060 39 bd 32 3b f3 b8 3e bc f4 e4 33 bc 24 60 c1 bc
       0.002727343 -0.011640775 -0.01097988 -0.023605414
000070 20 b8 e6 bb b8 6a 0d bb 42 fb 00 bb 77 6e 89 3c
       -0.0070409924 -0.0021578502 -0.0019681011 0.016776307
000080 5d 03 f9 bc e9 c6 16 3c f7 47 30 bd 6a cd 02 bd
       -0.030397112 0.009202697 -0.04303738 -0.03193418
000090 dd 78 9c 3b 77 8b 3a bd dd 77 1e bd 16 17 a6 ba
       0.00477515 -0.04554316 -0.03868853 -0.0012671675
0000a0 fa 2f 44 3d 0a e9 5b 3d 96 a1 3e bd 39 1f 99 3c
       0.047897317 0.05368904 -0.04654082 0.018691646
0000b0 3f 0d af 3c fc 69 1d 3b 4b d2 80 bc 2c f9 3c bc
       0.02136862 0.002401947 -0.015725276 -0.011534017

transformer_enc.layers.0.self_attn.out_proj.weight f4 [16, 16]
000000 3e 22 68 3e a6 52 95 bc e7 80 9e 3c e4 13 c4 bd
       0.22669312 -0.018227886 0.019348575 -0.09574106
000010 78 4e 3c 3e ac 76 59 3e b7 e9 31 be 2d 92 ac 3d
       0.18389308 0.21236676 -0.17374311 0.08426318
000020 e9 69 7d 3e 46 3c e5 bc 80 66 c4 bd 84 cd 2e be
       0.24747433 -0.027982842 -0.09589863 -0.17070585
000030 66 28 c5 bd 50 25 22 be 06 c6 28 3e ab c3 4e be
       -0.09626846 -0.15834546 0.1648179 -0.20191829
000040 6d 95 10 3e ed c5 42 bd 6e 5a 59 3e 55 c5 9b 3e
       0.14119501 -0.047552038 0.21225902 0.3042399
000050 fb d5 69 3c 76 1a 25 3e cf 75 33 3c 89 d5 e0 3c
       0.014272208 0.16123375 0.010953381 0.027445571
000060 d0 b5 ef 3c c4 8c da bd cd 10 14 bd b2 8f 91 be
       0.0292615 -0.1067138 -0.036148835 -0.28429943
000070 ab 60 4d 3e 52 b9 39 be c3 43 3d be 2f d9 19 3c
       0.20056407 -0.181371 -0.1848288 0.0093901595
000080 e7 26 3f 3e e5 a0 36 be 85 c9 00 3d 3f a7 1c 3d
       0.18667184 -0.17834814 0.031442184 0.038245436
000090 a6 c2 2b bd 8e ba 3a be a5 02 bb bd 11 e4 2c be
       -0.041933678 -0.18235227 -0.09131364 -0.16883875
0000a0 dd db 02 3d 6e 75 ba bd 60 7a 61 be f9 be b5 bd
       0.03194796 -0.09104429 -0.22019339 -0.08874316
0000b0 bd 0b c1 3b 21 1a 0f be 76 82 8f bd 71 2b 88 3c
       0.005891292 -0.13974811 -0.07007305 0.016622277
0000c0 7d ac ce 3d 56 8e 21 bd d9 e1 89 bc c2 e7 0c be
       0.10091493 -0.039442383 -0.016831325 -0.13760284
0000d0 bb e3 31 3e 2c 8a 9a bc 15 4d 61 be f4 64 fa bd
       0.17372029 -0.018864714 -0.2200206 -0.122262865
0000e0 8f 4a 2d 3c b0 52 42 bc 5b 2f b6 bd 5e 8e f5 3d
       0.010576858 -0.011860535 -0.08895751 0.11990045
0000f0 b0 1b 89 be ac eb e0 3e f3 4d 1b 3e 88 5e 27 bd
       -0.26778936 0.43929803 0.15166454 -0.040861636
000100 64 5a 0c 3e 51 1c cf bd 68 ef 38 3e f7 33 d0 3c
       0.13706356 -0.10112823 0.18060076 0.025415404
000110 b2 fa ea bc 59 cd ea 3d 5a 13 43 3d b7 a1 3d be
       -0.028683994 0.11464948 0.047625877 -0.1851872
000120 a2 41 cd 3d 2b 0b 62 3e 02 1d 13 be d3 36 b0 bd
       0.10022284 0.22074573 -0.14366534 -0.08604207
000130 cc c3 b4 bd 3b 7c 94 3e 82 25 18 3e a8 45 f9 bc
       -0.08826408 0.2900103 0.14858058 -0.030428723
000140 8d e2 6a 3e 7d ef fa bd d2 0b 19 be 78 62 c7 3d
       0.22937985 -0.1225271 -0.14945915 0.09735578
000150 7f 73 0c 3e 45 7a 29 be 83 e4 44 3e 92 fc 04 be
       0.13715933 -0.16550548 0.19227795 -0.12986973
000160 dc 29 a0 3d 8a 41 4d bd 1d a7 04 be 92 50 08 3e
       0.07820484 -0.05011133 -0.12954374 0.13311985
000170 fa 4c fc 3d 9e 2c df 3a 76 95 96 3d df 19 09 3e
       0.123193696 0.0017026847 0.07352726 0.13388775
000180 cc f1 84 3d c8 77 4b 3d 3b d8 37 be 67 13 0a be
       0.064914316 0.04967478 -0.17953579 -0.13483964
000190 f0 85 49 be 27 79 1c 3e 0c 83 ae 3d 7a c6 fc bd
       -0.1968 0.15280591 0.08521089 -0.12342544
0001a0 ef bb 73 bd f4 d4 93 3e f0 97 e9 3d c1 a8 4d 3d
       -0.0595054 0.28873408 0.11405933 0.050209764
0001b0 aa 4d 06 3d 56 83 35 be 4d 9d 6a bd 2e a4 92 3c
       0.03278891 -0.17725882 -0.05727892 0.017900553
0001c0 c0 fa 9c bd bf f1 fa bd 3d d0 2e be 0c 7b 69 be
       -0.07665014 -0.12253141 -0.17071624 -0.22800845
0001d0 32 66 56 3e bb 38 de bd d0 34 01 be 58 32 93 3c
       0.20937422 -0.10850664 -0.12617803 0.017968342
0001e0 04 b1 22 be 2a 22 27 be f0 92 42 3d 34 67 83 3d
       -0.15887839 -0.16321626 0.04750341 0.06416169
0001f0 17 ab 56 be ca 2c c7 3d 47 dc 18 3e db e6 8a bd
       -0.20963703 0.0972534 0.14927779 -0.067823134
000200 ac a7 ba 3c 7f b9 23 3e 49 5a 2b be 93 66 08 be
       0.02278503 0.1598873 -0.1673366 -0.13320379
000210 24 e3 93 3e d4 30 33 39 3a ee 6c 3e 3d 31 63 3e
       0.28884232 0.0001708896 0.23137751 0.22186752
000220 e9 7e d0 3d 8b 71 f9 3d 92 79 f3 3a a9 af f9 3d
       0.10180456 0.1217986 0.001857566 0.12191708
000230 d4 f7 29 3e 22 1e 91 ba e2 5b dc 3c 25 2c 0e 3e
       0.16598445 -0.0011071602 0.026899282 0.13884027
000240 af 58 c9 bd 10 78 66 bd 1b 27 5d be 64 49 8f bd
       -0.09831368 -0.056266844 -0.21596949 -0.0699642
000250 6f 8a 94 bd 65 5a 65 3e 33 5f 6b bd 36 cd bb bd
       -0.072529666 0.22397764 -0.057463836 -0.0917
000260 a7 18 97 3d d5 8c 6c 3d 80 5c f0 3c 7f 63 02 3e
       0.07377749 0.057751495 0.029340982 0.12733267
000270 14 ea 30 be 28 e1 96 3d 76 db 03 3e 26 ac bd 3d
       -0.17276794 0.07367164 0.12876686 0.0926135
000280 2d e6 68 3e 26 19 2e 3e 06 8e 80 bc 83 4f 9d 3c
       0.22744055 0.17001781 -0.015692722 0.019202953
000290 8c 16 83 be 06 dd 71 3e ad 1e fc 3d 7a f4 50 3d
       -0.2560314 0.2361947 0.123105384 0.0510144
0002a0 7a 27 b0 bd a1 e2 5e be e6 4d 20 3e 3c ae a0 bc
       -0.086012796 -0.2176614 0.15654716 -0.019614331
0002b0 1e 60 00 3e 8a cc ae 3d d6 9e c2 3d f5 85 71 be
       0.12536666 0.085351065 0.09502952 -0.23586257
0002c0 46 f6 65 be 60 83 d2 bb a8 f3 32 be d5 39 70 be
       -0.22457227 -0.0064243525 -0.1747576 -0.23459561
0002d0 c4 89 34 3e c8 45 2c 3e 7a 81 c4 3d 12 94 6f 3d
       0.17630678 0.16823494 0.09595008 0.05849082
0002e0 ae e1 9c bd e2 f9 05 be 45 55 21 3e e0 6d a7 3d
       -0.076602325 -0.13083604 0.15755184 0.08175254
0002f0 2a cd 42 3e db 7e 1e 3e 8e 52 59 3d 24 12 0f bd
       0.19023576 0.15478079 0.053057246 -0.03492941
000300 dc 67 fb 3c bc b5 04 be 97 59 a9 bd 83 7f d2 3d
       0.030689172 -0.12959951 -0.08269041 0.10278227
000310 9d 1a 3a 3e 84 b5 b8 3c 24 47 10 be 41 c3 a1 3d
       0.18174215 0.02254749 -0.14089638 0.0789857
000320 4e 35 a4 bd 4c f8 89 bc 5a 1d 9e 3d 01 8b 57 bd
       -0.080179796 -0.01684203 0.07720442 -0.0526228
000330 8c a9 2e be b5 e2 b4 bd 41 3f 1e be ac 29 df 3c
       -0.17056865 -0.088323034 -0.15453817 0.02724155
000340 df f1 0b 3e 0a ae d2 39 b0 5e c4 bd 2c a3 91 bd
       0.13666485 0.0004018399 -0.09588373 -0.07111201
000350 5c 84 58 be ec 41 ba bd 59 5b 16 3d 89 16 84 3d
       -0.21144241 -0.09094605 0.03670821 0.06449611
000360 de 25 9b bd d0 80 05 3d 03 4f 12 bc 4f 7d 19 3e
       -0.07575582 0.03259355 -0.008929971 0.14989208
000370 ed b9 c4 bd dd 3f 5c 3e f3 8f cc bd f6 97 fd 3c
       -0.09605775 0.21508737 -0.09988394 0.03095625
000380 50 42 65 bd f2 51 cf bd 29 58 c9 bd da 57 68 bd
       -0.055971444 -0.10123052 -0.09831268 -0.056724407
000390 5c 3e 7f 3d 95 76 b4 3b 4c a1 45 bd 6b a8 6e bc
       0.06231533 0.0055073 -0.048249528 -0.014566521
0003a0 a0 83 12 be 0f cd 5d be fb f7 62 3e 8b 5b df bd
       -0.14308023 -0.21660255 0.2216491 -0.10906132
0003b0 f8 9d 23 3e e9 5d 6a 3d 38 23 67 3d 69 92 96 3d
       0.15978229 0.057218466 0.05643007 0.07352144
0003c0 77 51 30 be e7 c2 a5 bd 7f 46 49 3e d4 02 22 bd
       -0.17218576 -0.08093815 0.19655798 -0.03955348
0003d0 0c 53 4b 3c 6f f4 8f 3d 55 24 ae bd 6d 5d 1c be
       0.012409937 0.07029044 -0.085030235 -0.15270014
0003e0 0b c4 e7 bc 1f bb 38 3e f3 21 9e bd 16 ef 3e 3e
       -0.028291723 0.18040131 -0.07721319 0.18645892
0003f0 f3 06 10 be 97 00 0d 3e 24 a7 07 3e 86 32 3b 3e
       -0.14065151 0.13769756 0.13247353 0.18280992

transformer_enc.layers.0.self_attn.out_proj.bias f4 [16]
000000 be c1 66 3a e7 ba c4 bc 57 e4 ce 3c 31 0f 6c ba
       0.00088026735 -0.024014903 0.025255365 -0.0009004949
000010 95 8b d0 bc c2 48 75 3b 62 f4 92 bc 7b 3c 95 3b
       -0.025457183 0.00374274 -0.017938796 0.004554329
000020 ed e0 92 3c ca 38 03 3b b2 5c 78 bc 4c 92 68 3c
       0.017929519 0.0020022863 -0.015158819 0.014195036
000030 fe 33 94 ba d5 06 99 3c 02 2e 67 ba 60 13 a7 3b
       -0.0011306999 0.018680016 -0.00088188064 0.005098745

transformer_enc.layers.0.linear1.weight f4 [2048, 16]
000000 0f 06 f8 3c f2 c9 af bd 0f c4 37 bd 99 8d 20 3d
       0.030276326 -0.0858344 -0.04486471 0.039197538
000010 98 f8 69 3d 1d 66 09 3d cf 80 9a 3e 15 77 8f 3d
       0.057121843 0.03354465 0.30176398 0.07005135
000020 8a 29 c3 bd 3a 37 07 3e dd 54 99 3d 49 4f 3c be
       -0.09529407 0.13204661 0.074868895 -0.1838962
000030 da af 03 be 75 cd 83 bc 9a 54 09 bd 45 6d 3a be
       -0.12860051 -0.01608918 -0.033527948 -0.18205746
000040 c1 7d 69 3d d4 39 fd bc 12 c8 5d be d6 72 10 be
       0.057004694 -0.030911364 -0.21658352 -0.14106306
000050 1a 25 df bd 1e 45 4b be 51 9d 71 3e ef 92 ec 3d
       -0.108957484 -0.19850585 0.23595168 0.11551463
000060 e6 0a 35 be 62 83 72 3c 72 12 9c 3c 18 d5 29 bc
       -0.17679939 0.014801832 0.019051764 -0.010365747
000070 27 b7 67 bd 6b bc 48 3c 5c ca 17 be 1a 13 91 bd
       -0.056571152 0.012251954 -0.14823288 -0.070837215
000080 c2 ee bf bd 0c b2 b0 bc 00 67 34 3e 7d bb 82 3e
       -0.09371711 -0.021569274 0.17617416 0.25533667
000090 5f ea 53 3e fe 16 e2 bd 8d 0b 25 3e 16 88 2b bc
       0.20694874 -0.11039542 0.16117688 -0.010469457
0000a0 b6 3d 6a 3c 7c 8a a3 bd 22 bb 4d 3e ae 1e 7b be
       0.01429694 -0.07985398 0.20090917 -0.24523422
0000b0 c4 c8 2f be 07 bc 97 bd b7 6a 37 bd c7 07 d3 3d
       -0.1716643 -0.0740891 -0.044779506 0.10304218
0000c0 29 c4 ce bd f9 de 85 3c d8 2e 37 3e ed b5 5b 3d
       -0.10096008 0.016341673 0.17888963 0.053640295
0000d0 83 5c ef bd a4 1e 89 be ef af db 3c 1a 0c 63 be
       -0.11687567 -0.2678119 0.02681729 -0.22172585
0000e0 d5 d4 25 3d ec 03 6d be 16 17 d1 3d fd be 86 be
       0.040486176 -0.23146027 0.102094814 -0.26317587
0000f0 c4 6e af be ac 8e 39 3e 8a 92 be 3d 7b 18 c2 3a
       -0.34264195 0.18120831 0.09305294 0.0014808321
000100 b8 86 8c 3e f3 3e fd bd 01 44 1d be f1 eb 0c be
       0.27446532 -0.12365522 -0.15357973 -0.1376188
000110 38 96 23 bd b8 37 ea bd e3 93 db 3d 3e 26 6c be
       -0.03993818 -0.11436409 0.107215665 -0.23061463
000120 b9 6e 2b bd cc 22 42 3e e5 53 51 3e 47 1b b4 bd
       -0.04185364 0.18958586 0.2044216 -0.08794265
000130 b3 b2 bb bd 29 cc 9b bc 73 82 ae 3d 23 3c 48 be
       -0.091649435 -0.01901825 0.08520975 -0.1955419
000140 a7 ba 5e 3d 0e d0 76 bd 94 6f 6d 3e 2e 66 55 3e
       0.054377224 -0.06025701 0.23187095 0.2083976
000150 b1 29 12 3d ec 0d 2f bd 07 bb 23 bd e1 dc 1f 3e
       0.03568429 -0.042737886 -0.039973285 0.15611602
000160 e5 3b 3c be 6a 5e 3d be a3 e9 8a bd 0a 1c 23 3d
       -0.18382223 -0.18493047 -0.06782844 0.039821662
000170 aa 77 7d be 16 3e 6d be ee 33 da 3e 23 b9 a0 3e
       -0.2475268 -0.23168215 0.42617744 0.31391248
000180 e5 4d 9d be 8c 4e 4c 3e f5 56 e6 3d c5 35 4b 3e
       -0.3072349 0.19951838 0.112470545 0.1984473
000190 0d e0 c8 bd d5 c7 1a be 54 8d 8d 3d 7c f7 2f 3e
       -0.09808359 -0.15115292 0.06911722 0.17184252
0001a0 18 8b 9f be e3 d9 c5 3d e6 2e 84 bc d7 26 03 3d
       -0.31160808 0.09660699 -0.016135644 0.032019462
0001b0 6f 2c 3e 3e 37 df 7c be a7 5e 1a bd 66 8a 10 be
       0.18571638 -0.24694525 -0.037687924 -0.14115295
0001c0 8f 31 80 be ba 60 9c 3d 2f 1a 5e be b3 6b 6d 3e
       -0.2503781 0.07635637 -0.21689676 0.23185615
0001d0 a5 43 ba bd 76 98 13 bc 63 e7 e1 3d cf cb 32 be
       -0.090949334 -0.0090085175 0.11030462 -0.1746056
0001e0 58 24 b1 be 60 b2 da bd 41 6a 23 3e b3 aa 89 3a
       -0.3459804 -0.106785536 0.15958501 0.0010503143
0001f0 65 a8 2f 3e 7e 0f 50 be 4b e7 99 bc 1e c8 87 be
       0.17154081 -0.2031841 -0.018787047 -0.26519865
000200 7a 64 5a 3d ce c9 13 be 7b 22 b5 3e 61 ff df 3d
       0.05331848 -0.14432451 0.3537787 0.109373815
000210 d9 b4 17 3e c5 52 97 3e c9 6f dd 3c 68 20 4e be
       0.14815082 0.29555336 0.027030842 -0.2012955
000220 23 e5 be be 79 0d a7 bb cd aa da 3d 7a 8d 86 be
       -0.37284192 -0.0050980416 0.10677109 -0.26279813
000230 f3 ea e6 3c 18 e3 9b 3d 93 f3 c8 3c 01 1e 6a be
       0.028188204 0.07611674 0.024530208 -0.22863008
000240 7e 14 89 3e b1 d5 27 be b0 d3 f4 3d 86 fe 42 3e
       0.26773447 -0.1639011 0.11954439 0.19042405
000250 83 3f 3d 3d 31 98 7f 3e 21 58 06 3e d0 e0 6c be
       0.046203148 0.249604 0.13119556 -0.23132634
000260 fd f2 20 3d 1f 61 4a 3e 00 5c 58 be ac 54 41 3e
       0.03929423 0.19763611 -0.21128845 0.18879956
000270 de 7c 41 be c8 40 fd 3d 54 cc 90 3e 8c 68 e6 3d
       -0.1889529 0.12365872 0.2828089 0.112504095
000280 12 14 51 3d b6 61 0c 3e d3 84 fc 3d 9c 0c 7f bd
       0.05104453 0.13709149 0.12330022 -0.062267885
000290 64 d2 8d bb e3 6d 50 3e d2 50 c5 bc 38 d6 70 be
       -0.004328059 0.20354418 -0.02408639 -0.23519218
0002a0 37 7d fa bd db a3 95 bd 5b 42 92 bd a8 2a b4 3c
       -0.12230914 -0.073066436 -0.071415626 0.021992996
0002b0 5c aa 96 be be ce 6a be 4b 56 67 3e b8 18 87 3e
       -0.2942685 -0.22930428 0.22591512 0.26386046
0002c0 d3 10 37 3d 39 19 0e be 83 9d e4 bd 98 e5 03 be
       0.04469378 -0.13876809 -0.111628555 -0.12880552
0002d0 8e 19 f6 bd ca 4a 8f 3d cc 58 08 be 18 52 f2 bc
       -0.12016593 0.06996687 -0.13315123 -0.029580161
0002e0 78 63 53 3d 12 af e0 bd 11 f9 2a be 4c 23 2c 3d
       0.051608533 -0.10970892 -0.16696574 0.04202585
0002f0 2c 33 8a 3c f1 b0 af bc ea 38 d2 3d af 88 79 3e
       0.016870104 -0.021446677 0.10264762 0.24368547
000300 72 a7 b5 bd 5b 37 9a bc 86 e2 ea 3d 9e 92 5e be
       -0.08869828 -0.018825224 0.11468987 -0.21735618
000310 5c 13 64 3e 03 5c 8f bd 6e e7 d6 3d c4 49 69 3d
       0.2227301 -0.06999972 0.104933605 0.056955114
000320 65 a2 bd 3d cb 36 f0 bd 6d c2 13 3d 21 c7 b2 3d
       0.0925949 -0.11729201 0.03607409 0.08729387
000330 ac a5 4e be 2f 23 6e 3d 57 c3 41 3e 40 aa 98 3d
       -0.20180386 0.058139022 0.18922172 0.074543476
000340 16 6b 21 be 74 7c 71 3d ea 0e a9 bd ee 74 04 bd
       -0.15763506 0.05895658 -0.08254798 -0.032338075
000350 f8 a9 02 3e 5c c4 ab 3c d6 81 00 be d3 82 20 be
       0.1276015 0.020967655 -0.12549528 -0.15674905
000360 53 96 55 be 5b 1c 47 3e 84 bc a5 bd 20 aa 98 3d
       -0.20858125 0.1944441 -0.08092597 0.07454324
000370 64 4e 9e ba b9 37 9e bd 95 c0 f3 bd 98 61 c3 3a
       -0.0012077806 -0.07725472 -0.119019665 0.0014906405
000380 26 fa a0 3e 42 cf 1d be 9a 9d 42 be 9c 61 e7 bd
       0.31440848 -0.15411094 -0.19005433 -0.112979144
000390 a9 82 73 3e 0e f0 51 bc 4b 34 2b 3e 3b ee 79 be
       0.23780312 -0.012813581 0.16719167 -0.24407284
0003a0 07 01 16 3e 62 33 67 bd b8 e5 43 be 92 52 c0 3d
       0.1464883 -0.056445487 -0.191306 0.09390749
0003b0 1f a2 54 3c 46 01 16 3e 73 75 05 3d d2 85 20 be
       0.012978106 0.14648923 0.03258271 -0.15676048
0003c0 01 91 39 3e 10 a0 dd 3c 9d 18 ca 3e 30 4a d2 3d
       0.18121721 0.027053863 0.39471903 0.102680564
0003d0 f8 d9 8b 3e e3 94 19 3e e4 11 06 3d 3f 6c 12 be
       0.27314734 0.14998202 0.032731906 -0.14299105
0003e0 6b 40 92 3c 42 f2 d2 3d 46 78 26 be f6 d4 cf 3d
       0.017852983 0.10300113 -0.16256818 0.10148041
0003f0 6a 63 08 3d de f1 82 3c 06 bf ee bd 28 15 a1 be
       0.033297934 0.015984472 -0.116575286 -0.31461453
